LeNet/best_model_wts.pth (torch, 249671 bytes, 10 tensors)

conv1.weight f4 [6, 1, 5, 5]
00000000: 93ad cebe 83c2 23be 6802 613e ca7f 833e
00000010: b48d fc3e c07c 99be 7696 143d 8477 bdbc
00000020: 3330 a63e 8218 653e ed5a 85bd 7f4a 3f3e
00000030: 8f9e d5bc a0d2 26be c5b8 843c d916 6abe
00000040: ec2e f5bc 7854 8f3a 84c8 bd3d 468b b2be
00000050: c172 073e 033b 023f 62a6 983e 3e29 103d
00000060: b298 fcbe 9a44 9c3e 865a 323d 4737 bfbe
00000070: 71cf 04bf 21b3 6bbe 9474 ab3e f5a1 e53e
00000080: 6774 89bd f3d9 edbe 4fad 9a3e 21b5 293e
00000090: 880a db3e d658 abbd f97d 88be 90f8 7c3e
000000a0: ba98 e23e a60c fd3d a46b a1be 5469 f5be
000000b0: 6c6f 95bd 0c66 b23e 817d 7f3e fd1f e8be
000000c0: 04e7 f5be adc6 28be 4a16 3b3e 4ae2 213f
000000d0: d9c6 003e 831a 02bf 6dc3 6abe 1212 8ebd
000000e0: 4018 233f 4315 b43e b8af 2dbf 26f7 95be
000000f0: b006 513d f997 163f f0e2 a53e 50cf 36bf
00000100: 119a 24bf 4aac d5bc 5e19 663f ffc8 143f
00000110: fa9f a9be ca79 15bf 6b27 8d3e 3995 893f
00000120: f88a 233f 93e8 d2be 5d60 79be 5f0a 11bd
00000130: a39a 86be d26c 8cbf 6843 a8bf 7b69 60bf
00000140: d416 843d a804 98be b73f 2fbe 829b 8dbe
00000150: 91f4 e4be fec2 7eba eb28 cf3d 450d 303e
00000160: 518f 843e b1d1 173e 97a0 053e d1ed e13e
00000170: 4b24 843e 98f0 943c 5bf6 203e d470 6e3e
00000180: 0358 9e3e 5f4d 3fbd babe 183e a064 20be
00000190: 7e7a 3c3c 3322 033f 0e73 9e3e cb0b ae3e
000001a0: f45e e13d bcd4 32bb 73fb c73e ed21 7f3e
000001b0: 75ce 063d 0781 343e 3f0c 88be 40c7 393d
000001c0: 5b1c 4d3e ae03 b73d 1218 1e3d 1a4a a6be
000001d0: ad38 79be 96b5 78be 95e1 26be feac 96bc
000001e0: fe35 44bf ade9 b5be cde9 02be a1fa e1bd
000001f0: c3dd ba3d 1c96 5dbd dfe4 ef3e c35c 6d3f
00000200: 1c67 463f 83c9 c43d 85cf ca3f 6010 2a40
00000210: fc43 1140 1b1e 8c3f 0f2c 48be d312 b23f
00000220: 3a21 4c40 a66f 0140 ad79 263f 97af 43bd
00000230: f372 563f b98c 1440 42c5 873f 04c8 25be
00000240: 1065 9cbe db15 d6bd 1d36 de3e 3f67 27be
00000250: 55a3 15bf e036 fcbe
-0.40366802 -0.15992169 0.21973574 0.25683433 0.4932686 -0.2997799 0.036276303 -0.023128279
0.32458648 0.2237263 -0.06511483 0.18680762 -0.026076583 -0.16291285 0.016201386 -0.22860278
-0.0299296 0.0010935208 0.09266761 -0.34871882 0.13227369 0.50871295 0.2981444 0.03519558
-0.49335247 0.3052109 0.04354336 -0.3734686 -0.5187903 -0.23017551 0.3348738 0.44850126
-0.06711655 -0.46455345 0.3021035 0.16573001 0.42781472 -0.083665535 -0.2665861 0.24704194
0.44257146 0.12355928 -0.31527436 -0.4793192 -0.07296643 0.3484348 0.2495022 -0.45336905
-0.48027813 -0.16482039 0.18270221 0.63235915 0.12575854 -0.50821704 -0.22926112 -0.069370404
0.6370888 0.3517247 -0.6784625 -0.29290122 0.05103177 0.5882564 0.32399702 -0.71410084
-0.64297587 -0.02608313 0.8988246 0.58119196 -0.33129865 -0.5838896 0.27569136 1.0748664
0.63883924 -0.41193065 -0.24353166 -0.03541028 -0.26289853 -1.0970709 -1.3145571 -0.8766095
0.064496666 -0.29691052 -0.17114149 -0.27657706 -0.4471784 -0.0009718387 0.10115226 0.17192562
0.25890592 0.14826085 0.13049541 0.44126752 0.2580894 0.01818113 0.15718977 0.23285228
0.30926523 -0.046704646 0.14916506 -0.15663385 0.011503814 0.5122406 0.30947155 0.33993372
0.11004439 -0.0027287444 0.39059028 0.24915285 0.032911737 0.17627345 -0.26571843 0.045356035
0.20030348 0.08936249 0.038597174 -0.3247841 -0.24338026 -0.2428802 -0.1629699 -0.018393036
-0.76644886 -0.35529843 -0.127845 -0.11034132 0.09124329 -0.054098234 0.46854302 0.9271967
0.7750108 0.09608748 1.584458 2.6572495 2.2697744 1.0946687 -0.19548057 1.3911995
3.189528 2.0224395 0.6502941 -0.047774877 0.8376915 2.321089 1.0607073 -0.16189581
-0.30545855 -0.10453387 0.4340066 -0.16347979 -0.5845235 -0.49260616

conv1.bias f4 [6]
00000000: 15b0 9ebe 863f d53d 652c 123e 9dd9 a03d
00000010: 022f b0bd ca04 89be
-0.30993715 0.10412507 0.14274748 0.078540064 -0.08602716 -0.26761466

conv2.weight f4 [16, 6, 5, 5]
00000000: 6750 803d 5f0f 19bd c4af 54be 4021 6ebe
00000010: 0c2d 0d3e d70e 62be ebdc 1bbe 78b6 adbd
00000020: da64 96bc 51da a43e 140d eabd f54d 363e
00000030: 9873 f2bb b2e2 dd3d ad3f 353e 8c2d 91bc
00000040: 46e6 013e 68c4 ffbd 274e fdbd 1424 2ebe
00000050: 3142 8f3e f4bf 873e 73a9 0f3d 02b1 56bd
00000060: b676 b4be 936b c33c 1a4c bebc 0155 913a
00000070: 00e1 173d bdc3 85be b0b8 833e 6a73 883c
00000080: bd75 c4ba 1879 473c f2e0 17be e881 0c3e
00000090: 04d9 5d3b 2311 6ebd 7dd0 cebb ea07 833e
000000a0: ecc8 a6bd c29b 9abd cd95 b9bd 517f 65be
000000b0: b183 6b3e 7d67 52be bf1f 573e 1c00 903a
000000c0: 663e 1abd f04d 83bd 6f34 a53e 4a80 5d3e
000000d0: 5ae2 893e dc01 b63e d9b4 833d 0b98 4f3d
000000e0: 6847 0ebd af0c 9ebc 946b 0f3e aa23 dd3d
000000f0: 1724 96be 16ed 26be 5972 3cbe e942 dbbd
00000100: 2014 963c 11f4 d2be 199a 17bd b458 57be
00000110: 4100 7fbe ee44 583d 398f a43d 7077 df3d
00000120: eaae 32be 55fc b8be c4ee 54be b56b 8bbd
00000130: 07f6 d4bd c9bb b3bc 7ae9 1b3e 3021 25bd
00000140: cbd0 e23c 8427 8dbc 58b7 793d 93c3 233c
00000150: adb4 42be e084 5ebd ab0c 9e3b ba1e afbd
00000160: 682f 81bc 7847 24bb b252 15bd f54d d3bd
00000170: b493 e0bd ff4b 5e3d 1c54 4a3e 5e94 88be
00000180: 10b4 5bbe eea5 71bd dd25 aabd c96b 493e
00000190: 8a10 04be 4abd 413e 70ad 5e3e c898 693e
000001a0: eca2 563e 5237 e7bd 1304 4b3d ed10 c0bc
000001b0: 992a bd3d f280 883e f727 d4bc 9cf4 0cbd
000001c0: 1c24 8ebd 3bdd a23d 7b4e 193d a7ed eabd
000001d0: d053 acbd 3af8 38bc 81b4 35be 34c8 3abe
000001e0: 44ac 12be 77ee ca3b b437 063e bcf3 2f3e
000001f0: d812 dc3c c469 c13d 625a 99bc 3304 003c
00000200: ca4c 9f3c 90a8 8e3d 3bef 00be c958 753c
00000210: 636c a6bd 6b04 2abe 23e2 32be fa2f 3ebe
00000220: 24ee 163e a225 16bd 69eb f4bd 0c8c b6bd
00000230: 7b99 07bd 162b 6d3e 8387 39be 2010 2fbe
00000240: afb4 e9bb 49ed 6f3e 467d d73e f8e2 0e3e
00000250: 5511 8abc 48e1 06bd 3401 073c 14d3 2a3f
00000260: 265e 2d3f 694c 93be 6664 fbbe 0cf5 4f3c
00000270: d52a 8f3e e0bc a93e a84a 9dbe 7124 7bbe
00000280: 7aa6 ac3e 4a18 003f f3f3 1d3e ebe6 83be
00000290: 04ab b7be 906b 043f 5736 8e3e 5007 65be
000002a0: fcb8 ecbe 8b31 00bf 7f74 033f 6a62 1d3e
000002b0: 60c9 42be 3102 05bf a646 6bbe 06f6 a03d
000002c0: 8a4b d6be 4b88 f2be 1f79 9f3e 2daf 393f
000002d0: 54cc 503c 80ed 14be 7719 573e d41f aa3e
000002e0: 0bc6 9c3e 37f4 77be ed55 78be 75d6 913e
000002f0: abc2 f83e 4cc0 1a3e 483b 8ebe 51b6 32be
00000300: 879a d63e 37be 083f 4fa6 e6bd 4958 66be
00000310: c23b 27bd 447c ed3e 8119 d33e dd96 80be
00000320: 0afa 213e 5141 a5be 33a3 bebd 7a28 853d
00000330: 17aa 42bd 35ec d83d 8705 e0bb 4bcd 023e
00000340: a906 73bd 53ef 0abe aa70 d43d 86cc e63d
00000350: 2c62 ec3d ffd6 343d 01e5 6bbe befa ab3d
00000360: bbde 4b3e 52ed 2d3e 8b72 b5bd d01c 9cbe
00000370: 0f02 b83d 6980 423e 7625 043e c8da 8ebe
00000380: 2f50 cdbe 6af6 9f3e 416d afbe be01 00bf
00000390: af77 88bd 99a6 c43e b20c c33c c1df 90bd
000003a0: a44a c8bd 122d ed3d 2cde 943e 5db2 cebc
000003b0: 105b 26be fa78 3dbd 46e6 873d 04c5 983e
000003c0: 7c61 6cbe 1199 13be e828 553c 93f8 383e
000003d0: a231 ac3e b0ae 89be 304f f2bd 87b0 893c
000003e0: 063a 993e 807e 933e 9732 09bf 03e5 eebd
000003f0: 4b2f 5e3e e433 e7bd fd55 19be bcf6 0bbc
0.062653355 -0.037368175 -0.20770174 -0.23254871 0.13786715 -0.22075973 -0.15220992 -0.08482069
-0.018358637 0.32197812 -0.11428276 0.17803176 -0.0073990338 0.10834254 0.17700072 -0.017721914
0.12685499 -0.124886334 -0.12368422 -0.1700595 0.27980188 0.26513636 0.03507371 -0.0524149
-0.3524682 0.023855006 -0.023229647 0.0011087955 0.03707981 -0.261259 0.25726843 0.016656596
-0.0014988702 0.012174867 -0.14831904 0.1372143 0.0033851275 -0.05812181 -0.006311475 0.25591975
-0.081437916 -0.0754924 -0.09061775 -0.22411849 0.22999455 -0.2054729 0.21008204 0.0010986361
-0.037657164 -0.0641135 0.32266566 0.2163097 0.26930505 0.35548294 0.06430978 0.05068211
-0.034736067 -0.019293157 0.14005882 0.10797818 -0.2932441 -0.16301379 -0.18402995 -0.107061215
0.018320143 -0.41201833 -0.037012193 -0.21029931 -0.2490244 0.05280011 0.0803513 0.10911453
-0.17449537 -0.36130014 -0.20794207 -0.06807653 -0.103984885 -0.021940129 0.15225783 -0.040314853
0.02768745 -0.017230757 0.060965866 0.009995359 -0.19014235 -0.05432594 0.0048232875 -0.085507825
-0.015769675 -0.0025067013 -0.036455818 -0.103176035 -0.10965672 0.054271694 0.19758648 -0.26675695
-0.21455407 -0.058996134 -0.08308003 0.19670023 -0.12896934 0.18919864 0.21745849 0.22812188
0.20960587 -0.112898484 0.049564432 -0.02344557 0.092366405 0.26660877 -0.025897963 -0.034412965
-0.06940481 0.079523526 0.03742836 -0.1147111 -0.084144235 -0.011289651 -0.17744638 -0.18240434
-0.14323527 0.006192978 0.13107187 0.17182821 0.026864454 0.09444001 -0.018719856 0.007813501
0.019445796 0.069657445 -0.12591259 0.014974781 -0.08126142 -0.16603248 -0.17469077 -0.18572989
0.14739281 -0.036656983 -0.119589634 -0.089134306 -0.033105355 0.23160967 -0.181181 -0.17095995
-0.007132135 0.23430361 0.42087764 0.13953769 -0.016853968 -0.03292969 0.008240033 0.6672833
0.67721784 -0.28769234 -0.49100035 0.012692701 0.27962366 0.33151913 -0.3072102 -0.2452562
0.33720762 0.5003706 0.1542509 -0.25762114 -0.35872662 0.5172663 0.27775833 -0.22366071
-0.46234882 -0.50075597 0.51349634 0.15369573 -0.19022131 -0.5195647 -0.22976169 0.07859425
-0.41854507 -0.47369608 0.31147096 0.7253292 0.012744028 -0.14543724 0.21005808 0.33227408
0.30619845 -0.24214254 -0.24251528 0.2848393 0.4858602 0.15112418 -0.27779603 -0.1745236
0.4191477 0.53415245 -0.112621896 -0.22494616 -0.040828474 0.4638387 0.41230395 -0.251151
0.15818039 -0.32276395 -0.093084715 0.06501861 -0.04752549 0.10591928 -0.0068365964 0.12773626
-0.059332523 -0.13567857 0.103730515 0.112694785 0.11542162 0.04415035 -0.23036577 0.08397435
0.19909184 0.16985062 -0.08859738 -0.30490732 0.08984768 0.18994297 0.12904915 -0.27901292
-0.40100238 0.31242687 -0.34263042 -0.5000266 -0.06663453 0.38408354 0.023809765 -0.07073928
-0.097798616 0.11580862 0.29075754 -0.025231535 -0.16245675 -0.04625795 0.06635718 0.2983781
-0.23084062 -0.14413859 0.013010241 0.18063574 0.33631617 -0.26891088 -0.1183151 0.016807808
0.2992708 0.2880745 -0.5359282 -0.11664774 0.21697728 -0.11289194 -0.14974208 -0.008542713

conv2.bias f4 [16]
00000000: 20ce 503e 584e 5abe 90bb 5bbd b5a7 a7bd
00000010: 7f63 ba3e 6a84 48be 36ea cebd 088f 373e
00000020: 0605 08be 79ea 6ebb cf27 233e 6c43 7cbd
00000030: b5cf 11be 7690 0c3d a5ac 583d 7baf 01bd
0.2039113 -0.21318948 -0.05364567 -0.081862845 0.36404034 -0.19581762 -0.10103266 0.17925656
-0.13283166 -0.0036455675 0.15933155 -0.061587736 -0.1423939 0.034317456 0.05289902 -0.03166149

fc1.weight f4 [120, 400]
00000000: e1eb c93d e36b 8e3e 38ab 8c3e 2d58 4a3d
00000010: 0258 83bd ad3e e7bc cc89 96bd e44f 013e
00000020: 64fb eabd c7bf d13d a8f6 153d 099a 20be
00000030: 1015 1abd ca02 1bbc 7902 ce3d b9bb 2a3c
00000040: 5524 61bc b037 a7bc 21d8 17be 9b06 93be
00000050: 254b e2be a762 113e 1d5b c7bd 6f21 253e
00000060: d54f 103e d678 3bbd ca6b ecbd ecf5 dcbe
00000070: 1bf4 7bbe b673 d1bc 065f 27be 7fb4 9abc
00000080: 867a 9cbd 92dd 6b3e 7769 aebc 2bb2 e5bd
00000090: 4bbb b7bc 836f c33b 2687 8c3d 1072 ba3d
000000a0: c30b af3d f178 8cbd ddc8 a2bc 30f0 223d
000000b0: ceb1 57bd 38a9 ee3d 6056 ac3d a9d8 0ebe
000000c0: 70db 8cbc 63b5 813e 59d8 a4be f3c5 3b3d
000000d0: ae02 173e 3ce6 c6bc 981b 1dbd 2619 6fbd
000000e0: 8123 f33d 4a58 113e 13a3 17be 81c0 9abe
000000f0: db6f 1e3e 0cec a2bc 2c19 1dbd 1478 4abd
00000100: f671 80be f7c7 733e c5db d1bd 2ef3 863d
00000110: a1e3 3b3d 4d72 23bd bb03 a03d 57ff 973c
00000120: a1e6 ea3d 6862 043d e2be 8b3d 9571 153e
00000130: 0b5e d0bc 3f59 62bc 5111 bcbc 8d35 86be
00000140: 167b 113e bb59 16bd 048b fa3d d366 213e
00000150: fe1f 203e 2bcd 053d 8037 fd3d 3e3e 843e
00000160: 9642 06bd dd13 fdbd 67f8 8ebb 333d ce3d
00000170: 6632 2f3e 97bb febc b4b5 23bc 6ea5 2ebd
00000180: 2f45 cf3d 0b0a d83d 5294 f83d ed0e 693c
00000190: 95ed 80bd f68e 393e 7da7 403e 39a1 5bbe
000001a0: f637 fbbb 42dc 3a3d 4583 00be 5819 6cbd
000001b0: cfa3 d2bc 4d55 c8bd 26f9 3ebe 06e4 d83c
000001c0: d169 a3bb fc8e 40bd d166 603d 133f a4bd
000001d0: a223 963d 9cb6 893d 06f2 723a 2985 29bc
000001e0: fc6a 163e 8309 123d 862d 403e fcb0 003e
000001f0: 4409 633b 3481 1dbe b2a4 c9be aa2d 443e
00000200: 1527 073e c704 74be 10ac 0b3c 0348 d53c
00000210: 7590 a33e ec00 14be 9b88 153d cc35 cf3c
00000220: 2a2d 1cbe a247 443c 8930 f9bc f3a8 09be
00000230: be0e 4bbc 94a8 a43d 2701 573d 0436 95bd
00000240: 1945 a6bd b490 be3e 38b8 b6bc c3a8 c43d
00000250: a1c5 17be d182 96bd d5a7 3abe 11ff a23d
00000260: 6a04 69be 73e6 aa3d bebf 76bd 8099 b6bd
00000270: 518d 57bd 5fe2 56bd 0c6c 963c d068 3ebe
00000280: 8e6d 21be 6e1c b0bd ee12 1dbe 0de0 c43c
00000290: 1afe a7bd 2c26 05be dfb6 b63c 5201 fe3c
000002a0: 6c1b 3d3e e252 dbbd e1ae 833e b1d1 e0bb
000002b0: a177 903d 0622 213e eac4 bf3e af7f a43e
000002c0: 3da9 cfbc cc8c 253f e340 8dbe 08d7 82be
000002d0: 5ad9 09bd 7da3 afbd 5807 fd3c 3982 84bc
000002e0: 6e49 813d 6964 ab3d b89a 773c 512c e9bd
000002f0: 9a28 ca3d 663f 92bd 6a13 bebb 09b7 59be
00000300: 3427 ddbd df6e 15bc 797e 4a3e 45e4 033d
00000310: 411d bf3c ae5f 13bd f831 1dbd b6c8 65bc
00000320: 735e 21be 7970 a43d 3951 3bbe 1405 55be
00000330: 4f5c 69bc c2c3 bebc 2233 fc3d 51b9 37bd
00000340: 7dac 0b3e 4127 543d 4eb9 31bd b0b8 6d3d
00000350: 247e 86bc 4ff9 cebc ce90 f23d 9d36 9c3d
00000360: 3400 8d3d dadf 823b 82dc 6ebe 6aa5 a5bb
00000370: 7408 20be 975e a93e 94ba 80bd be4e fabd
00000380: 1e49 bb3c 330c b6bc 4129 253e c605 1bbd
00000390: e294 9cbe 89ab 2b3c 39c7 0b3c 84c3 0dbe
000003a0: 9dd4 713e 9ae5 bbbd 11a1 c1bd a360 95bc
000003b0: 1ba5 783d 856b 903e c42e adbd cbac 033d
000003c0: 5cfc 9c3d acd5 15bd fe26 ad3d 75df 5abd
000003d0: 7f14 703e 03a1 66be 6fcb a2be 3d74 2cbe
000003e0: 6dd6 c13c 7feb 5cbe bb27 bb3d 0e8a 36be
000003f0: 8b76 1abe d86e 51bd eb78 003e f0ed 3cbd
0.098594435 0.27816686 0.2747438 0.049400497 -0.064132705 -0.028228128 -0.073505014 0.12628132
-0.1147373 0.10241657 0.036612183 -0.1568376 -0.037617743 -0.009461114 0.10059065 0.010420733
-0.013741572 -0.020412296 -0.1482854 -0.28715977 -0.44197956 0.14197789 -0.09734175 0.16126035
0.14092954 -0.045769535 -0.11543997 -0.43156374 -0.24604838 -0.02556787 -0.16344842 -0.018884895
-0.07640557 0.23033741 -0.021290524 -0.112156235 -0.022428175 0.005964221 0.06861715 0.09103787
0.08547165 -0.06859005 -0.01987117 0.039779842 -0.052659802 0.1165337 0.08414912 -0.13949837
-0.01719448 0.253337 -0.3219631 0.045843076 0.14747116 -0.024279706 -0.038356394 -0.058373593
0.11872006 0.14193836 -0.14808302 -0.30224994 0.15472357 -0.019887947 -0.038354084 -0.04943092
-0.25086945 0.2380675 -0.10246996 0.065893516 0.04587138 -0.039903928 0.078132115 0.018554373
0.1146977 0.03232041 0.068235174 0.1459411 -0.025435468 -0.013815223 -0.022957476 -0.2621273
0.1420711 -0.036706667 0.122335464 0.1576188 0.15637204 0.032666367 0.123641014 0.25828737
-0.032778345 -0.12357304 -0.004363108 0.100702666 0.17109069 -0.03109531 -0.009992052 -0.042638235
0.101206176 0.105487905 0.12137665 0.01422475 -0.06295315 0.18120942 0.18813892 -0.2144822
-0.007666583 0.04562021 -0.12550075 -0.057641357 -0.025712876 -0.09781895 -0.1864973 0.026475918
-0.0049869795 -0.04701136 0.054785553 -0.08019843 0.07331015 0.06724283 0.00092676317 -0.010346689
0.14689249 0.035653602 0.18767366 0.12567514 0.0034642974 -0.15381318 -0.39383465 0.19158044
0.13198502 -0.23829947 0.00852491 0.026035314 0.3194615 -0.14453477 0.03650723 0.025294207
-0.15251604 0.011979969 -0.030418651 -0.13443355 -0.0123936515 0.08039966 0.052491333 -0.07285693
-0.08118648 0.37219775 -0.02230464 0.09602501 -0.14821483 -0.0734917 -0.18228085 0.07958806
-0.2275559 0.08344736 -0.060241453 -0.089159966 -0.052625004 -0.052461978 0.018362068 -0.1859467
-0.15764448 -0.085991725 -0.15339252 0.024032617 -0.08202763 -0.13002843 0.022303997 0.031006489
0.18467492 -0.10709168 0.2571936 -0.0068609347 0.070540674 0.15735635 0.3745492 0.32128665
-0.025349254 0.64667964 -0.27588567 -0.2555468 -0.03365455 -0.08576105 0.03088729 -0.016175376
0.06312834 0.08368761 0.015112571 -0.11385406 0.098710254 -0.071409985 -0.005800654 -0.21261229
-0.10798493 -0.009120672 0.19774808 0.032200117 0.023329379 -0.03597992 -0.038377732 -0.014024904
-0.15758686 0.08029265 -0.18292703 -0.20802718 -0.0142431995 -0.023286704 0.1231444 -0.044854466
0.13640018 0.051795248 -0.04338961 0.05803746 -0.01641757 -0.025265364 0.118440256 0.07627604
0.06884804 0.0039939703 -0.23326305 -0.0050551193 -0.15628225 0.3307998 -0.06285587 -0.1222205
0.022862013 -0.022222614 0.16129018 -0.037847303 -0.3058234 0.010477909 0.008531385 -0.13844115
0.23616262 -0.091746524 -0.09454549 -0.018234557 0.06070433 0.2820703 -0.084561855 0.03214721
0.07665321 -0.036580727 0.08454703 -0.05343576 0.23445319 -0.22522359 -0.31795833 -0.16841216
0.023661816 -0.2157421 0.09138437 -0.17826101 -0.15084283 -0.0511311 0.12546127 -0.046125352

fc1.bias f4 [120]
00000000: 0d40 8f3e 2962 8fbe 5ff1 843e d502 153d
00000010: 34f3 fcbc cfaa 92be e2b0 ccbd 6afe 20bd
00000020: 1f60 863e b4d6 603e 12f7 783d 455f 5ebd
00000030: 6e68 0d3d 1bf9 b83d e925 873d d581 de3d
00000040: 7b1d 7e3e 47e8 50bd 8109 313d b8af 673e
00000050: ceb7 a83d 3e8a 3d3e 2178 6f3d 76fc 31be
00000060: 0b49 723c b284 443e e0fe 313e 8133 b73d
00000070: b6b3 b73d da01 a43d eaa9 a5be ca32 783c
00000080: a204 333e 6f16 72bd 40ae 09be fef6 82be
00000090: 213e 6b3e 6735 823e 8320 173e 8c0e a43d
000000a0: 8312 633e 1f8d 4c3d 16a8 5f3d d394 29bd
000000b0: d06a 28be df46 433e e35e dfba 7dc1 5c3e
000000c0: 9eae 89be e56d e63d 9fb9 06be c498 273e
000000d0: 0941 d4bd f17a 903e fc56 dc3c 7ad7 643e
000000e0: 7fef 30bd 0b7a f43e f503 cb3b 9ac1 bf3e
000000f0: d70e 3abe e5ae 17bd 74e5 253d 4cd9 ebbd
00000100: e733 69be 4b23 223d 3850 3dbc 0021 313e
00000110: 8518 853d af4a 84be 3ded 6d3d 5af6 433e
00000120: 768a 5cbc 5fc3 db3d c83b 1b3d 3b74 6f3b
00000130: 4e2d 063d ef40 65be d0de dfbd f957 a8bd
00000140: e8be 343e 4ba6 17bc 67e6 1c3e ee4d 39bc
00000150: c9d9 89be 960d b1be 885d 89be 54fa ddbe
00000160: c2a8 f7bc d3cf afbc ee2f f63b ac3d 663e
00000170: b812 323e 883c 623d 5330 87bb 97f4 613e
00000180: fefc a33d 0265 173e 6bf7 bbbd 6a25 3ebe
00000190: 11c6 cf3e 6d38 6c3d bc45 a6bd dbf9 04be
000001a0: 2c59 e33d f9d7 b0be 5ea8 d63d a148 12be
000001b0: 347d e9bc 2f3b 953a 1915 46be 5e79 dbbd
000001c0: fd0a 813d 70ae aebd aafb ab3e b6d0 70bd
000001d0: 7207 153e 004b 23be 6a83 9dbd c6bb 3bbd
0.27978554 -0.28004578 0.25965402 0.036379654 -0.030877687 -0.28645942 -0.09994675 -0.03930513
0.2624521 0.21956903 0.0607825 -0.054290075 0.03452342 0.09031888 0.06599028 0.10864607
0.24815933 -0.051002767 0.043221954 0.22625625 0.08238183 0.18509766 0.058464173 -0.17381462
0.014787923 0.19191244 0.17382383 0.089453705 0.08969824 0.08008166 -0.32356197 0.015148828
0.17482236 -0.059103426 -0.13445377 -0.25579065 0.22972919 0.25431368 0.14758496 0.08010587
0.2217503 0.04993927 0.05460366 -0.041401695 -0.16446996 0.19070004 -0.0017041828 0.21558185
-0.26891035 0.112514295 -0.13156746 0.16366869 -0.10363967 0.28218797 0.026896946 0.22347823
-0.04319715 0.4774936 0.00619554 0.37452394 -0.18169723 -0.037032027 0.040502027 -0.115160555
-0.22773705 0.03958444 -0.01155477 0.17297745 0.06498817 -0.2583823 0.058087576 0.19136944
-0.013460746 0.107306235 0.03789881 0.0036537785 0.03275805 -0.22388051 -0.1093117 -0.082199045
0.1765095 -0.009255956 0.15322267 -0.011310084 -0.2692397 -0.34580678 -0.2682917 -0.43355048
-0.030231837 -0.021461403 0.007513038 0.22484463 0.17389953 0.05523351 -0.0041256337 0.2206596
0.08007239 0.14784625 -0.091780506 -0.1856896 0.405808 0.057671 -0.081187695 -0.12985937
0.111009926 -0.34539774 0.10481332 -0.14285518 -0.028502084 0.0011385436 -0.19343986 -0.10716508
0.06300924 -0.08529365 0.33590442 -0.058792792 0.14553621 -0.15946579 -0.07691081 -0.04583337

fc2.weight f4 [84, 120]
00000000: 503e 33bd 5a74 6f3d 1c16 513d cd0b 123d
00000010: 139e c5bc b5f9 12bd 5e13 abbc f488 893c
00000020: 92e1 fc3c 5f5e 013c 094b 713c c7b7 2c3d
00000030: f976 e93c 97c8 31bd cefb 89bd 88d5 22bd
00000040: 6a7a 893c 3b64 a73c 98ad 9b3b 0f52 493c
00000050: 4c92 263d cbcc 9c3a 4714 883b beac 36bc
00000060: c076 523d b2df 303d 7e75 8a3c b83e 36bd
00000070: 9481 753c 86cb 95bb 8d21 b4bd 4e4a 38bd
00000080: 078c cb3c 5009 ee3c cc29 553d c933 59bd
00000090: db74 2fbc 8aa3 783c 0d87 e63c eca6 583c
000000a0: 3a6d 6cbd 8e7a 103a 2bb7 633c 767b 423a
000000b0: 4264 d93c c461 0a3d 4ead d73c 9a58 bb3a
000000c0: 9307 b23d fbbb 023d 46ea 5b3c 30da 37bd
000000d0: 9e0b 76bc 5dca 2a3d 58a7 30bd b78e 16bc
000000e0: 2258 533d c38f e53c 4738 653b c815 003d
000000f0: ea79 0bbd 0e74 33bc 0741 1bbc 2357 393d
00000100: ddd0 6b3d 2cae 36bd e435 63bc 4fdd 65bd
00000110: e304 f4b9 31b0 723b 7be7 afbc 9385 19bd
00000120: 4c25 93bd c117 193c 71c3 1b3c deb2 54bb
00000130: 4533 9f3d 2ae0 e33c fd70 ab3b 3f19 af3d
00000140: 26c8 dfbc 53fc 813d f921 163d 07a2 f63c
00000150: 448b 843b 2e2f d7bc 599b 3dbd 2b91 923b
00000160: 2ead 22bc c7ff 223c 9ebe 443d 9db8 973d
00000170: fc5a 953c c419 7fbc a42b 17bd 927e 50bd
00000180: 4f99 0a3c 9258 1cbd 2089 42bd 6983 22bd
00000190: caca 6d3d aac7 38bd 38de 3bbd f711 433d
000001a0: e9fe f3bc e560 393d 2914 a43c f5fb aabc
000001b0: b389 23bc d68d 31bd b0e4 9e3a a9ac 96bd
000001c0: d3ec 1a3d ed2b 84ba 8935 babd 3c0e a53c
000001d0: f8d5 dd3c e52a 6abc dc41 50bd 07ac e5bb
000001e0: 7573 5a3e d3a0 913a 380e d43d 618d ccbd
000001f0: 146e 4d3d 1ea4 a9bc ea40 a4bc 4253 5b3d
00000200: 0d25 ff3d 07e8 a9bd e7a9 02bd cba5 8d3e
00000210: 5264 b63b 7ad2 16be a753 41bd ff47 7c3d
00000220: 2fa0 543d c45d 443c 29e5 303c 0589 b83d
00000230: 4537 923d 45bf 033d 1d9c b13d 5fc3 963d
00000240: 835b 423c 574f 4b3c 3e0c 6f3d 4232 bf3c
00000250: de28 42bd d933 373d 4cb7 993c 72d3 8fbd
00000260: ff54 7f3d dc16 a6bc 81cc 67bd 095b babd
00000270: 1364 07bc b075 43bc a908 ef3c 0a91 f43d
00000280: 4aa8 723e 076d 7a3d a770 cc3c 4a17 9c3b
00000290: 8058 f3bc 7c79 6f3d 70de 00bc 5664 533c
000002a0: 0f62 87bd 89d5 b83c 5811 243c b1b9 713e
000002b0: b6cc 8bbd 32b3 fc3d 06bb a4bd 6356 d8bd
000002c0: 385d 98bc 8988 fd3d 5da2 5f3d 092c 923d
000002d0: e77d 913c 0fd1 f53c 3163 a53c 05d2 fcbd
000002e0: eaa7 6fbe 1e07 813d 1372 c23c 9c9f b33d
000002f0: f677 0d3e 47c6 6fbd bb56 efbc ee89 053e
00000300: ce02 dd3d 7439 86bd 4dab 7ebc d594 d2bd
00000310: 8a73 56bd a95b 68bc 5538 52bd 8cd3 7dbd
00000320: cd56 833d 3bd2 143e 56ff 013d 4eec 09bd
00000330: f80a 35be 7d71 03bd a859 56bd 267d 0c3b
00000340: 8557 0ebd 119f 81bd 5539 883d d703 6d3e
00000350: c181 013d d62d dc3d 99b3 3b3d d6ac a43d
00000360: 5215 fa3d 9752 263e 9021 f83d 6305 083c
00000370: ede8 193c 78d6 143b aefe 0cbd 38a7 073d
00000380: c291 a9bd 1fa6 8bbe d8e9 a9ba 39bd 2abe
00000390: 1767 1a3d 614b 0e3d 0013 66bd b992 ee3d
000003a0: 2e49 35bd dd04 f7bd 7ddc 40bc d3b2 183d
000003b0: 6a51 393d a79a c4be 6fc4 0dbd 3835 a4bb
000003c0: f7ed 30be 2746 4c3d c5e0 c13c 6973 1e3d
000003d0: f682 bd3c d630 8cbd 0f28 08bd 7f2c 903c
000003e0: ea60 543c eb71 cf3c 7d60 f33c 8425 bc3d
000003f0: f0d6 48bd a55c 54bd df93 0cbc 6961 36bd
-0.043760598 0.05846057 0.051046476 0.035655785 -0.024123227 -0.03588267 -0.020883258 0.016788937
0.030869279 0.007896035 0.014727362 0.04216745 0.028499113 -0.043404188 -0.06737481 -0.03975442
0.016782004 0.020433536 0.0047509186 0.012287631 0.040666863 0.0011962889 0.004152808 -0.011149583
0.05138278 0.043182082 0.016901728 -0.044493407 0.014984507 -0.004571381 -0.08795462 -0.044992737
0.024847044 0.029057175 0.052041814 -0.0530279 -0.010709013 0.0151757095 0.02814057 0.013223391
-0.057721354 0.0005511426 0.013898651 0.000741891 0.026537064 0.033784643 0.026327755 0.0014293373
0.08692851 0.031917553 0.013422554 -0.044885814 -0.015017418 0.041696895 -0.04312834 -0.009189299
0.051597722 0.028022652 0.003497617 0.031270772 -0.034051813 -0.010952963 -0.009475953 0.045249116
0.057572234 -0.044599697 -0.013867829 -0.05611926 -0.00046542948 0.0037031288 -0.021472683 -0.037480902
-0.07184848 0.009344042 0.009507046 -0.0032455246 0.07773451 0.02781685 0.005231975 0.08549737
-0.027317118 0.06346955 0.036653493 0.030106558 0.004044922 -0.026267614 -0.04629073 0.004472872
-0.009928985 0.009948677 0.04803335 0.07408259 0.018231861 -0.015570108 -0.036906853 -0.050901957
0.008459403 -0.038170405 -0.047494054 -0.039676104 0.058054723 -0.04511229 -0.04586622 0.047624554
-0.029784637 0.04525842 0.020029144 -0.020872096 -0.0099815605 -0.043348156 0.0012122598 -0.07357151
0.03782351 -0.0010083892 -0.09092242 0.020148389 0.027079567 -0.014292453 -0.05084406 -0.0070090326
0.21333106 0.0011110551 0.103542745 -0.099879034 0.050153807 -0.02070814 -0.020050485 0.053546198
0.12458239 -0.08296209 -0.031900313 0.27665552 0.0055661583 -0.14728728 -0.047198918 0.0615921
0.051910575 0.011985246 0.010796824 0.090105094 0.07139448 0.03216483 0.08672354 0.07361483
0.011862638 0.012409053 0.058361284 0.023339394 -0.047402255 0.04472718 0.01876416 -0.07022752
0.062336918 -0.020274572 -0.056591514 -0.09099395 -0.008263606 -0.011929914 0.029178934 0.119417265
0.2369701 0.061139133 0.02495606 0.0047635185 -0.029705286 0.058465466 -0.007865533 0.01290234
-0.066105 0.022562759 0.010013901 0.23605992 -0.06826155 0.12338866 -0.080434844 -0.10563352
-0.018599138 0.12379558 0.0545982 0.07137305 0.01776023 0.030006913 0.0201889 -0.123447455
-0.23403898 0.063001856 0.023736035 0.087706774 0.13815293 -0.0585387 -0.029216161 0.13040897
0.107915506 -0.06553927 -0.015543771 -0.10282294 -0.05235628 -0.01418201 -0.051323254 -0.061969325
0.0641304 0.14533322 0.031737648 -0.033672623 -0.17679965 -0.032090653 -0.052331597 0.00214369
-0.034751434 -0.06329168 0.0665156 0.23145996 0.031617884 0.1075093 0.045825575 0.08040778
0.12211098 0.16242443 0.121157765 0.008302066 0.009393913 0.002271084 -0.03442257 0.033118457
-0.08279754 -0.27275178 -0.0012963368 -0.16673745 0.03769597 0.034739856 -0.056170464 0.11649079
-0.044259243 -0.120614745 -0.0117713185 0.037279915 0.045243658 -0.3839924 -0.03461116 -0.005011227
-0.17278276 0.04987159 0.023666749 0.038684282 0.023133736 -0.06845252 -0.033241328 0.017599342
0.012962559 0.025322875 0.029709095 0.09186843 -0.049033105 -0.051846165 -0.008580177 -0.04452649

fc2.bias f4 [84]
00000000: e87a 5fbd 17dc 203e ce48 47bd 87dc e0bc
00000010: 4a7c 8abd 7c45 b73c 17d0 bd3c 0d0c 1cbd
00000020: 252f 0b3e b6bb 303c c122 02be a04d d5bc
00000030: a08f bf3d 70d7 113d 1969 9cbe b38c a53e
00000040: a3f1 49bd 20ee 9fbd 3435 40be d84a 353e
00000050: 6417 223e 0dfd 7ebd 5d40 d23d eeef 943d
00000060: 3c8a 833d 98fb 95be a93e d9bd 9d4e a83d
00000070: 87f5 a1bc 50be 1e3e 494f b93d 0a65 383c
00000080: 3dd9 b6bd 6317 553d 6953 00be b294 773e
00000090: 1760 93bc b8f7 7dbc 3901 e9bb cc52 223e
000000a0: ffd5 86bd 6dbb a1bc 8255 41bc 37a7 f1bd
000000b0: 9c89 d8bd ae66 1b3e e9f6 823d 2e4f 8fbd
000000c0: de31 9a3d a5e6 26bb 780c 10bd e774 48be
000000d0: c119 59bc f426 ae3c cdc1 563d 5090 4cbe
000000e0: 57ef 58be 096c 6c3e 1fa1 2a3c 6329 babd
000000f0: c686 2cbe ffd9 943e 9e55 ab3c 64a0 88bc
00000100: 9e3b 433d 783a f5bd 1341 8e3c ecdd 9dbd
00000110: af35 a03c 8ba9 49bd e234 ef3d b4b4 83bd
00000120: ed53 70bc 3a75 95bd a6b6 2a3c 47ce 29bd
00000130: d25f c23d 3858 6cbe c6f6 f83d f55d 22bd
00000140: 6c14 2abd 4a4b dc3d 37ae aabe adb1 64bd
-0.054560572 0.15708958 -0.048653416 -0.027448906 -0.067619875 0.022372 0.023170514 -0.03809743
0.13592203 0.010786941 -0.1270857 -0.026037991 0.09353566 0.035605848 -0.30548933 0.32333907
-0.04930271 -0.078090906 -0.18770295 0.17704332 0.15829235 -0.062253047 0.102661826 0.072723255
0.064228505 -0.29293513 -0.106076546 0.08218119 -0.019770397 0.15502286 0.090483256 0.011254558
-0.08928154 0.052024256 -0.12531818 0.24177817 -0.017990155 -0.015500955 -0.0071107415 0.15851897
-0.06583785 -0.019742692 -0.011800172 -0.11799472 -0.10573122 0.15175888 0.063947506 -0.06997524
0.07529043 -0.0025467065 -0.03516814 -0.19575845 -0.013250769 0.021258809 0.052430917 -0.19976926
-0.21185051 0.23088087 0.010414391 -0.09089925 -0.16848287 0.29072568 0.020914849 -0.016678043
0.047664277 -0.11974043 0.017365014 -0.07708344 0.019556848 -0.049233954 0.116800085 -0.06430951
-0.014668447 -0.0729775 0.010419523 -0.041456487 0.094909325 -0.23080528 0.12156443 -0.039640386
-0.041523382 0.10756548 -0.3333604 -0.055833507

fc3.weight f4 [10, 84]
00000000: 69b2 a23c 8098 d03d f9f6 993d c394 fcbb
00000010: 2200 023d 2af0 163b 3463 8ebc 7afb ed3d
00000020: 29c6 42bd d02c 713c f5c7 893d 559a fabc
00000030: 5c42 e0bd a780 3b3c fc5d 4abd d3c0 8e3d
00000040: 852e 803c c765 693d 40aa 033d e629 cbba
00000050: 491e 7bbd b45e 42bc 67eb 1bbc 4203 0ebc
00000060: e89a 95bd 7ef3 ebbd 297d 0b3d 3ce0 523d
00000070: 5098 dc3a 9bfd f5bd e4b1 ff3d 05ba efbc
00000080: b8b5 d23c b11f fbbc 675a 483c 6a28 6e3d
00000090: e597 8abb 79d1 a539 4e92 813d cc0b b1bc
000000a0: 9fb4 90bd 2e58 58bd 3b12 e4ba 9766 a13c
000000b0: 21b4 22be f444 b03d 984d e93c 67d6 98bd
000000c0: de64 c1bb 1788 a83d 8f81 de3b 3168 2e3d
000000d0: 2d32 5abd 729f 53bb 0162 ff3c 34af 36bd
000000e0: fd1d afbd 7ffd e23d 6a77 af3d 1ba7 95bc
000000f0: ea5f 4ebc ecd6 b93d f3dd 3fbc 1b10 00bd
00000100: 83d2 843b 0fa0 6b3c 9aaf f23c e966 063b
00000110: 657b db3c d51b 2f3d 77e3 f8bd 189c c3bd
00000120: 1799 053b d26a 8fbd 32fe e43d d5ec 633b
00000130: e45e 14bd dc8c b43d a34b 153c b741 45bd
00000140: 081b e93b 1124 21bd 5f81 a03c ef61 8ebd
00000150: ea00 e23c 6a43 3cbe 70f1 38bd a56f 883a
00000160: 70ed e13c ad28 c8bb b188 06bc 0bfa 193e
00000170: 289d 06bd 7df9 373e 5e66 2a3d 4dca a8bc
00000180: e8d3 1dbd 6a88 353c 665a d83c d54f 233d
00000190: 6327 593c 95df 393e 9cc1 543d 79a8 e9ba
000001a0: 8813 8abc 580a 3ebc 7db0 3bbc d65c 52ba
000001b0: 9826 ccbd 5ffc dabd e054 193d fd0c ff3c
000001c0: 000d 493b 544b 8eba 5a73 f2bb 2123 48be
000001d0: a0e1 9c3c 5d91 a6bc 57d0 35be a7ee 1f3d
000001e0: 1417 eabb d411 45bb fd4a 373d 5cfa 97bc
000001f0: 62eb b73c 86d2 f7bc 5b95 18bc 8b74 9b3c
00000200: a516 55be c3d1 fe3c 6bba 943c 0ff5 8dbd
00000210: 0841 b23a b5d4 513d 0330 7e3c f955 8c3c
00000220: a177 49bd 7d7c 363c 098f 023d 34f8 ddbd
00000230: 5405 173e ef4b 0abe 1b58 113d 2234 93bb
00000240: 7f43 723e c33c 2abe dac0 edbb cb7b 53bc
00000250: 4083 223c 5b4d 8c3a 3142 ff3d 23c3 c63b
00000260: 4fb7 c03c 6d01 363d 475b 36be 04e8 313c
00000270: c92a 213b 63f7 b03d 0ef1 113e 8b03 863b
00000280: 41af babc 1d7c 733d ab47 3c3b a28c 19bd
00000290: 93bf 37ba f65e e7bc bc3f 38bd 92ee a63c
000002a0: 5f04 e63c aa28 c43d d562 773d b4d0 cbbb
000002b0: ca3f 1b3d 0779 ec3a a4ea acbc a94e ca3d
000002c0: 0018 94bd b6b4 8fbd 7fd8 0c3e 6f20 c7bc
000002d0: d80f b03b b44a 543c a9cf 24bd d2e6 873d
000002e0: 8474 053c 8ccf c93d 8dc0 073d 0306 f3ba
000002f0: 9bb1 39bd 1c19 86bc afe6 8abc cc01 efbb
00000300: cd6a 59bd ffc3 a7bd 4bb0 0a3d 166c 4c3d
00000310: fa31 8939 00d7 47bd 2162 8ebd 6d1f 09be
00000320: d9ad 983c 69a5 7bbc f3f7 933c 9292 893d
00000330: ddf3 59ba 2da2 2bbc 7756 743d 1804 bebc
00000340: 42a3 e7bc 0565 59bd 25aa 46bc aa00 913c
00000350: 2331 bb3d 262b 8c3d d69e 8e3c 56e9 a6bd
00000360: 5758 71bc 90b0 833d 637e a53c 1921 cb3c
00000370: dd58 30bd f7df ac3b 34b4 073d 26e9 01bd
00000380: e510 c23d 9e46 193e 5eda 333d ece1 66bc
00000390: da99 18be a427 df3c 4f24 d4bb 0ff3 5dbc
000003a0: 7a99 ee3b 0949 a63b d847 cd3d 6e7f 603b
000003b0: 685b 9d3c f405 3e3d 3fa6 fd3c a145 903c
000003c0: 2a16 263c 14f7 063e 6e63 b93d 96aa 9a3c
000003d0: edec f1bc 3897 ea3d cb74 743c 187d 06bd
000003e0: 5938 0b3c f7c8 1fbd d9c1 c83a a950 11bd
000003f0: ecfb 923c b406 53bd 9a3e af3d 708b 853b
0.019860463 0.10185337 0.075178094 -0.0077081635 0.031738408 0.0023031333 -0.017381288 0.11620231
-0.04755226 0.014720157 0.06727592 -0.03059117 -0.10950157 0.011444247 -0.049406037 0.06970372
0.015647182 0.056981828 0.032144785 -0.0015500158 -0.06130818 -0.011863399 -0.0095165735 -0.008667769
-0.07304937 -0.11521052 0.03405491 0.051483378 0.0016830061 -0.12011262 0.12485102 -0.029263506
0.025721416 -0.03065476 0.012228585 0.05814401 -0.004229533 0.00031627322 0.063267335 -0.02161207
-0.07065701 -0.05281847 -0.0017400453 0.019702239 -0.15889026 0.08606902 0.028479382 -0.07462769
-0.005901917 0.08229082 0.006790347 0.042579833 -0.053270508 -0.0032291082 0.031174662 -0.04460068
-0.08550642 0.11083507 0.08567698 -0.018268159 -0.01259611 0.09074196 -0.011710632 -0.03126536
0.0040534153 0.014381423 0.029624749 0.0020508117 0.026792238 0.042751152 -0.121527605 -0.09551257
0.0020385438 -0.07002796 0.111812964 0.0034778614 -0.036223307 0.08815929 0.0091122715 -0.048158374
0.007113818 -0.039341036 0.019592939 -0.06952273 0.027588326 -0.18385091 -0.045152128 0.0010409249
0.02757904 -0.0061083646 -0.008211301 0.1503679 -0.03286472 0.17966266 0.04160153 -0.020604277
-0.038532168 0.011079887 0.026410293 0.039871056 0.013254019 0.18151696 0.051942453 -0.0017826698
-0.016855016 -0.011599146 -0.011455652 -0.0008024698 -0.09968299 -0.10692667 0.03743446 0.031134123
0.0030677915 -0.001085619 -0.007399005 -0.1954465 0.019150555 -0.020332986 -0.17755257 0.039045956
-0.0071438644 -0.003007044 0.04474925 -0.018551998 0.022451106 -0.030251753 -0.009312953 0.01897647
-0.2080942 0.031105882 0.018155297 -0.06931507 0.0013599703 0.051228244 0.015514377 0.017130839
-0.049186353 0.011138079 0.03187469 -0.108383566 0.14748126 -0.13505529 0.035484415 -0.0044922987
0.2365856 -0.16624741 -0.0072556557 -0.0129079325 0.009918988 0.0010704206 0.12463797 0.0060657426
0.023524908 0.044434953 -0.17808257 0.0108585395 0.0024592152 0.08640935 0.14252111 0.004089778
-0.022788646 0.059444536 0.002872924 -0.037487634 -0.0007009443 -0.028243523 -0.044982657 0.020377431
0.028078256 0.095780686 0.060396988 -0.0062199477 0.03790263 0.001804144 -0.02110798 0.098782845
-0.0723114 -0.0701689 0.13754462 -0.024307458 0.0053729825 0.012957264 -0.040237103 0.06635822
0.008145455 0.098540395 0.033142615 -0.001854122 -0.045335393 -0.016369395 -0.016955702 -0.0072939154
-0.05308037 -0.0819168 0.033859532 0.049907766 0.00026167912 -0.048789024 -0.0695231 -0.13390894
0.018637585 -0.015359261 0.018062567 0.06717409 -0.00083142315 -0.010475677 0.05965277 -0.023195311
-0.02827609 -0.053074855 -0.012125527 0.017700512 0.091402315 0.068441674 0.017409723 -0.08149974
-0.0147305345 0.06430161 0.020201867 0.024796056 -0.043053497 0.005275722 0.03313084 -0.03171649
0.094758786 0.14968345 0.043909423 -0.01409195 -0.1490244 0.027240582 -0.006474055 -0.013546719
0.0072814794 0.0050746244 0.10023469 0.0034255642 0.019208625 0.046392396 0.030963061 0.017611327
0.01013712 0.1318019 0.09052168 0.01888017 -0.02953192 0.11454624 0.014920424 -0.032834142
0.008497321 -0.039010014 0.001531656 -0.035477314 0.017942391 -0.051520064 0.08556862 0.00407546

fc3.bias f4 [10]
00000000: 3643 603d 5543 07bf e1b7 473c c6e2 153d
00000010: 20d1 babc 63d0 053e 3775 7f3e 9828 0fbe
00000020: 76fb 433e fa32 afbe
0.054751597 -0.52837116 0.012189836 0.03659322 -0.022804797 0.13067774 0.24947058 -0.13980329
0.19138893 -0.3421858
